…
  'a.item() instead', DeprecationWarning, stacklevel=1)
/home/atrophy/anaconda3/envs/nilmtk-env/lib/python3.6/site-packages/tensorflow/python/framework/tensor_util.py:480: DeprecationWarning: The binary mode of fromstring is deprecated, as it behaves surprisingly on unicode inputs. Use frombuffer instead
  return np.fromstring(tensor.tensor_content, dtype=dtype).reshape(shape)
_________________________________________________________________
Layer (type)                 Output Shape              Param #   
=================================================================
conv1d_1 (Conv1D)            (None, 100, 30)           330       
_________________________________________________________________
dropout_1 (Dropout)          (None, 100, 30)           0         
_________________________________________________________________
conv1d_2 (Conv1D)            (None, 100, 30)           7230      
_________________________________________________________________
dropout_2 (Dropout)          (None, 100, 30)           0         
_________________________________________________________________
conv1d_3 (Conv1D)            (None, 100, 40)           7240      
_________________________________________________________________
dropout_3 (Dropout)          (None, 100, 40)           0         
_________________________________________________________________
conv1d_4 (Conv1D)            (None, 100, 50)           10050     
_________________________________________________________________
dropout_4 (Dropout)          (None, 100, 50)           0         
_________________________________________________________________
conv1d_5 (Conv1D)            (None, 100, 50)           12550     
_________________________________________________________________
dropout_5 (Dropout)          (None, 100, 50)           0         
_________________________________________________________________
flatten_1 (Flatten)          (None, 5000)              0         
_________________________________________________________________
dense_1 (Dense)              (None, 1024)              5121024   
_________________________________________________________________
dropout_6 (Dropout)          (None, 1024)              0         
_________________________________________________________________
dense_2 (Dense)              (None, 1)                 1025      
=================================================================
Total params: 5,159,449
Trainable params: 5,159,449
Non-trainable params: 0
_________________________________________________________________
None
/home/atrophy/anaconda3/envs/nilmtk-env/lib/python3.6/site-packages/numpy/lib/type_check.py:546: DeprecationWarning: np.asscalar(a) is deprecated since NumPy v1.16, use a.item() instead
…
